…
WARNING:tensorflow:From /home/bhuvan/anaconda3/envs/cvenv/lib/python3.6/site-packages/tensorflow/python/ops/metrics_impl.py:1155: div (from tensorflow.python.ops.math_ops) is deprecated and will be removed in a future version.
Instructions for updating:
Deprecated in favor of operator or tf.math.divide.
U-Net with batch-Normalization with lr: 0.000100.
Model Summary:
__________________________________________________________________________________________________
Layer (type)                    Output Shape         Param #     Connected to                     
==================================================================================================
input_1 (InputLayer)            (None, 256, 256, 3)  0                                            
__________________________________________________________________________________________________
conv2d_1 (Conv2D)               (None, 256, 256, 32) 896         input_1[0][0]                    
__________________________________________________________________________________________________
batch_normalization_1 (BatchNor (None, 256, 256, 32) 128         conv2d_1[0][0]                   
__________________________________________________________________________________________________
activation_1 (Activation)       (None, 256, 256, 32) 0           batch_normalization_1[0][0]      
__________________________________________________________________________________________________
conv2d_2 (Conv2D)               (None, 256, 256, 32) 9248        activation_1[0][0]               
__________________________________________________________________________________________________
batch_normalization_2 (BatchNor (None, 256, 256, 32) 128         conv2d_2[0][0]                   
__________________________________________________________________________________________________
activation_2 (Activation)       (None, 256, 256, 32) 0           batch_normalization_2[0][0]      
__________________________________________________________________________________________________
max_pooling2d_1 (MaxPooling2D)  (None, 128, 128, 32) 0           activation_2[0][0]               
__________________________________________________________________________________________________
conv2d_3 (Conv2D)               (None, 128, 128, 64) 18496       max_pooling2d_1[0][0]            
__________________________________________________________________________________________________
batch_normalization_3 (BatchNor (None, 128, 128, 64) 256         conv2d_3[0][0]                   
__________________________________________________________________________________________________
activation_3 (Activation)       (None, 128, 128, 64) 0           batch_normalization_3[0][0]      
__________________________________________________________________________________________________
conv2d_4 (Conv2D)               (None, 128, 128, 64) 36928       activation_3[0][0]               
__________________________________________________________________________________________________
batch_normalization_4 (BatchNor (None, 128, 128, 64) 256         conv2d_4[0][0]                   
__________________________________________________________________________________________________
activation_4 (Activation)       (None, 128, 128, 64) 0           batch_normalization_4[0][0]      
__________________________________________________________________________________________________
max_pooling2d_2 (MaxPooling2D)  (None, 64, 64, 64)   0           activation_4[0][0]               
__________________________________________________________________________________________________
conv2d_5 (Conv2D)               (None, 64, 64, 128)  73856       max_pooling2d_2[0][0]            
__________________________________________________________________________________________________
batch_normalization_5 (BatchNor (None, 64, 64, 128)  512         conv2d_5[0][0]                   
__________________________________________________________________________________________________
activation_5 (Activation)       (None, 64, 64, 128)  0           batch_normalization_5[0][0]      
__________________________________________________________________________________________________
conv2d_6 (Conv2D)               (None, 64, 64, 128)  147584      activation_5[0][0]               
__________________________________________________________________________________________________
batch_normalization_6 (BatchNor (None, 64, 64, 128)  512         conv2d_6[0][0]                   
__________________________________________________________________________________________________
activation_6 (Activation)       (None, 64, 64, 128)  0           batch_normalization_6[0][0]      
__________________________________________________________________________________________________
max_pooling2d_3 (MaxPooling2D)  (None, 32, 32, 128)  0           activation_6[0][0]               
__________________________________________________________________________________________________
conv2d_7 (Conv2D)               (None, 32, 32, 256)  295168      max_pooling2d_3[0][0]            
__________________________________________________________________________________________________
batch_normalization_7 (BatchNor (None, 32, 32, 256)  1024        conv2d_7[0][0]                   
__________________________________________________________________________________________________
activation_7 (Activation)       (None, 32, 32, 256)  0           batch_normalization_7[0][0]      
__________________________________________________________________________________________________
conv2d_8 (Conv2D)               (None, 32, 32, 256)  590080      activation_7[0][0]               
__________________________________________________________________________________________________
batch_normalization_8 (BatchNor (None, 32, 32, 256)  1024        conv2d_8[0][0]                   
__________________________________________________________________________________________________
activation_8 (Activation)       (None, 32, 32, 256)  0           batch_normalization_8[0][0]      
__________________________________________________________________________________________________
max_pooling2d_4 (MaxPooling2D)  (None, 16, 16, 256)  0           activation_8[0][0]               
__________________________________________________________________________________________________
conv2d_9 (Conv2D)               (None, 16, 16, 512)  1180160     max_pooling2d_4[0][0]            
__________________________________________________________________________________________________
batch_normalization_9 (BatchNor (None, 16, 16, 512)  2048        conv2d_9[0][0]                   
__________________________________________________________________________________________________
activation_9 (Activation)       (None, 16, 16, 512)  0           batch_normalization_9[0][0]      
__________________________________________________________________________________________________
conv2d_10 (Conv2D)              (None, 16, 16, 512)  2359808     activation_9[0][0]               
__________________________________________________________________________________________________
batch_normalization_10 (BatchNo (None, 16, 16, 512)  2048        conv2d_10[0][0]                  
__________________________________________________________________________________________________
activation_10 (Activation)      (None, 16, 16, 512)  0           batch_normalization_10[0][0]     
__________________________________________________________________________________________________
dropout_1 (Dropout)             (None, 16, 16, 512)  0           activation_10[0][0]              
__________________________________________________________________________________________________
max_pooling2d_5 (MaxPooling2D)  (None, 8, 8, 512)    0           dropout_1[0][0]                  
__________________________________________________________________________________________________
conv2d_11 (Conv2D)              (None, 8, 8, 1024)   4719616     max_pooling2d_5[0][0]            
__________________________________________________________________________________________________
batch_normalization_11 (BatchNo (None, 8, 8, 1024)   4096        conv2d_11[0][0]                  
__________________________________________________________________________________________________
activation_11 (Activation)      (None, 8, 8, 1024)   0           batch_normalization_11[0][0]     
__________________________________________________________________________________________________
conv2d_12 (Conv2D)              (None, 8, 8, 1024)   9438208     activation_11[0][0]              
__________________________________________________________________________________________________
batch_normalization_12 (BatchNo (None, 8, 8, 1024)   4096        conv2d_12[0][0]                  
__________________________________________________________________________________________________
activation_12 (Activation)      (None, 8, 8, 1024)   0           batch_normalization_12[0][0]     
__________________________________________________________________________________________________
dropout_2 (Dropout)             (None, 8, 8, 1024)   0           activation_12[0][0]              
__________________________________________________________________________________________________
up_sampling2d_1 (UpSampling2D)  (None, 16, 16, 1024) 0           dropout_2[0][0]                  
__________________________________________________________________________________________________
conv2d_13 (Conv2D)              (None, 16, 16, 512)  2097664     up_sampling2d_1[0][0]            
__________________________________________________________________________________________________
concatenate_1 (Concatenate)     (None, 16, 16, 1024) 0           dropout_1[0][0]                  
                                                                 conv2d_13[0][0]                  
__________________________________________________________________________________________________
conv2d_14 (Conv2D)              (None, 16, 16, 512)  4719104     concatenate_1[0][0]              
__________________________________________________________________________________________________
batch_normalization_13 (BatchNo (None, 16, 16, 512)  2048        conv2d_14[0][0]                  
__________________________________________________________________________________________________
activation_13 (Activation)      (None, 16, 16, 512)  0           batch_normalization_13[0][0]     
__________________________________________________________________________________________________
conv2d_15 (Conv2D)              (None, 16, 16, 512)  2359808     activation_13[0][0]              
__________________________________________________________________________________________________
batch_normalization_14 (BatchNo (None, 16, 16, 512)  2048        conv2d_15[0][0]                  
__________________________________________________________________________________________________
activation_14 (Activation)      (None, 16, 16, 512)  0           batch_normalization_14[0][0]     
__________________________________________________________________________________________________
up_sampling2d_2 (UpSampling2D)  (None, 32, 32, 512)  0           activation_14[0][0]              
__________________________________________________________________________________________________
conv2d_16 (Conv2D)              (None, 32, 32, 256)  524544      up_sampling2d_2[0][0]            
__________________________________________________________________________________________________
concatenate_2 (Concatenate)     (None, 32, 32, 512)  0           activation_8[0][0]               
                                                                 conv2d_16[0][0]                  
__________________________________________________________________________________________________
conv2d_17 (Conv2D)              (None, 32, 32, 256)  1179904     concatenate_2[0][0]              
__________________________________________________________________________________________________
batch_normalization_15 (BatchNo (None, 32, 32, 256)  1024        conv2d_17[0][0]                  
__________________________________________________________________________________________________
activation_15 (Activation)      (None, 32, 32, 256)  0           batch_normalization_15[0][0]     
__________________________________________________________________________________________________
conv2d_18 (Conv2D)              (None, 32, 32, 256)  590080      activation_15[0][0]              
__________________________________________________________________________________________________
batch_normalization_16 (BatchNo (None, 32, 32, 256)  1024        conv2d_18[0][0]                  
__________________________________________________________________________________________________
activation_16 (Activation)      (None, 32, 32, 256)  0           batch_normalization_16[0][0]     
__________________________________________________________________________________________________
up_sampling2d_3 (UpSampling2D)  (None, 64, 64, 256)  0           activation_16[0][0]              
__________________________________________________________________________________________________
conv2d_19 (Conv2D)              (None, 64, 64, 128)  131200      up_sampling2d_3[0][0]            
__________________________________________________________________________________________________
concatenate_3 (Concatenate)     (None, 64, 64, 256)  0           activation_6[0][0]               
                                                                 conv2d_19[0][0]                  
__________________________________________________________________________________________________
conv2d_20 (Conv2D)              (None, 64, 64, 128)  295040      concatenate_3[0][0]              
__________________________________________________________________________________________________
batch_normalization_17 (BatchNo (None, 64, 64, 128)  512         conv2d_20[0][0]                  
__________________________________________________________________________________________________
activation_17 (Activation)      (None, 64, 64, 128)  0           batch_normalization_17[0][0]     
__________________________________________________________________________________________________
conv2d_21 (Conv2D)              (None, 64, 64, 128)  147584      activation_17[0][0]              
__________________________________________________________________________________________________
batch_normalization_18 (BatchNo (None, 64, 64, 128)  512         conv2d_21[0][0]                  
__________________________________________________________________________________________________
activation_18 (Activation)      (None, 64, 64, 128)  0           batch_normalization_18[0][0]     
__________________________________________________________________________________________________
up_sampling2d_4 (UpSampling2D)  (None, 128, 128, 128 0           activation_18[0][0]              
__________________________________________________________________________________________________
conv2d_22 (Conv2D)              (None, 128, 128, 64) 32832       up_sampling2d_4[0][0]            
__________________________________________________________________________________________________
concatenate_4 (Concatenate)     (None, 128, 128, 128 0           activation_4[0][0]               
                                                                 conv2d_22[0][0]                  
__________________________________________________________________________________________________
conv2d_23 (Conv2D)              (None, 128, 128, 64) 73792       concatenate_4[0][0]              
__________________________________________________________________________________________________
batch_normalization_19 (BatchNo (None, 128, 128, 64) 256         conv2d_23[0][0]                  
__________________________________________________________________________________________________
activation_19 (Activation)      (None, 128, 128, 64) 0           batch_normalization_19[0][0]     
__________________________________________________________________________________________________
conv2d_24 (Conv2D)              (None, 128, 128, 64) 36928       activation_19[0][0]              
__________________________________________________________________________________________________
batch_normalization_20 (BatchNo (None, 128, 128, 64) 256         conv2d_24[0][0]                  
__________________________________________________________________________________________________
activation_20 (Activation)      (None, 128, 128, 64) 0           batch_normalization_20[0][0]     
__________________________________________________________________________________________________
up_sampling2d_5 (UpSampling2D)  (None, 256, 256, 64) 0           activation_20[0][0]              
__________________________________________________________________________________________________
conv2d_25 (Conv2D)              (None, 256, 256, 32) 8224        up_sampling2d_5[0][0]            
__________________________________________________________________________________________________
concatenate_5 (Concatenate)     (None, 256, 256, 64) 0           activation_2[0][0]               
                                                                 conv2d_25[0][0]                  
__________________________________________________________________________________________________
conv2d_26 (Conv2D)              (None, 256, 256, 32) 18464       concatenate_5[0][0]              
__________________________________________________________________________________________________
batch_normalization_21 (BatchNo (None, 256, 256, 32) 128         conv2d_26[0][0]                  
__________________________________________________________________________________________________
activation_21 (Activation)      (None, 256, 256, 32) 0           batch_normalization_21[0][0]     
__________________________________________________________________________________________________
conv2d_27 (Conv2D)              (None, 256, 256, 32) 9248        activation_21[0][0]              
__________________________________________________________________________________________________
batch_normalization_22 (BatchNo (None, 256, 256, 32) 128         conv2d_27[0][0]                  
__________________________________________________________________________________________________
activation_22 (Activation)      (None, 256, 256, 32) 0           batch_normalization_22[0][0]     
__________________________________________________________________________________________________
conv2d_28 (Conv2D)              (None, 256, 256, 2)  578         activation_22[0][0]              
__________________________________________________________________________________________________
conv2d_29 (Conv2D)              (None, 256, 256, 1)  3           conv2d_28[0][0]                  
==================================================================================================
Total params: 31,119,109
Trainable params: 31,107,077
Non-trainable params: 12,032
__________________________________________________________________________________________________
Monitoring metric: val_mean_iou (mode: max)
Early stopping with patience: 10
…
